py_strategy/lstm_toy.onnx (onnx, 1601 bytes, 3 tensors)

onnx::LSTM_96 f4 [1, 8, 4]
000000 00 ec 6f 3e fa b0 f8 3e ac b3 97 3d 50 67 e8 be
       0.2342987 0.48572522 0.074073166 -0.4539132
000010 f3 52 10 3e 0e 0e 17 bf d2 b4 39 3d e1 d9 14 3f
       0.14094143 -0.5900582 0.04533846 0.58144957
000020 d4 42 be be ee 93 01 bf a4 da df 3e cf c7 23 3e
       -0.3716036 -0.5061635 0.43721497 0.1599419
000030 8b 6d 87 be 46 73 04 3f 40 91 9d be ad 18 06 3f
       -0.26450762 0.51738393 -0.3077488 0.523814
000040 00 2a 9d be 1f 3e 96 3e ad 0e 1f bf fe ed 0c 3f
       -0.30696106 0.2934427 -0.6213177 0.5505065
000050 4a 0b 28 3f 16 c2 24 3f 54 1b b0 be ed 40 20 3f
       0.65642226 0.6435865 -0.3439585 0.6259907
000060 ee b3 10 3e c4 91 2e 3f ff 16 09 3f c5 74 d1 be
       0.14131138 0.6819117 0.53550714 -0.409094
000070 84 08 cf 3e 22 4a 06 3f b9 8e c8 3e 17 f9 2a bf
       0.40436184 0.5245687 0.3917139 -0.6678633

onnx::LSTM_97 f4 [1, 8, 2]
000000 80 6f b7 be b5 73 b8 3c c7 ac 08 bf c4 5e ed be
       -0.35827255 0.02251611 -0.5338864 -0.46361363
000010 c6 3a 0d 3f 99 bb ac be 05 2d a7 3d 45 16 b6 3e
       0.55167806 -0.33736876 0.08162884 0.35563865
000020 d2 fe 6c be 4b b0 29 bf 65 e1 c1 be f8 3b 18 be
       -0.23144081 -0.66284627 -0.37867275 -0.14866626
000030 6d 3e b9 3e 3c 74 45 3d 04 1f 3b 3e 51 d9 eb be
       0.3618044 0.048206553 0.1827355 -0.46064237

onnx::LSTM_98 f4 [1, 16]
000000 a5 cc 2c be a5 80 f1 3d 36 12 33 3f 94 90 2d be
       -0.1687494 0.11792115 0.6994966 -0.16949683
000010 ca dd 27 3f 7a b2 19 bf 4c 58 f9 bc 45 d9 07 bf
       0.655728 -0.6003796 -0.030437611 -0.530659
000020 6d c7 f8 be 58 35 12 bf cb 83 9d 3e ac f2 fc 3e
       -0.4858965 -0.57112646 0.30764613 0.49403894
000030 cb df 32 3d d8 e8 7b bc 1e 20 87 be 16 e3 25 3e
       0.043670457 -0.0153753385 -0.2639169 0.16199908
